…
ol2d(F.relu(self.conv2(x)), (2,2))\n","        x = x.view(-1, self.num_flat_features(x))\n","        x = F.relu(self.fc1(x))\n","        x = F.relu(self.fc2(x))\n","        x = self.fc3(x)\n","        return x\n","\n","    def num_flat_features(self, x):\n","        size = x.size()[1:]\n","        num_features = 1\n","        #|num_features = lambda(x : fo)\n","        for s in size:\n","            num_features *= s\n","        print(num_features)\n","        return num_features\n","net = Net()\n","print(net)"],"execution_count":85,"outputs":[{"output_type":"stream","text":["Net(\n","  (conv1): Conv2d(1, 6, kernel_size=(4, 4), stride=(1, 1))\n","  (conv2): Conv2d(6, 12, kernel_size=(3, 3), stride=(1, 1))\n","  (fc1): Linear(in_features=432, out_features=120, bias=True)\n","  (fc2): Linear(in_features=120, out_features=84, bias=True)\n","  (fc3): Linear(in_features=84, out_features=10, bias=True)\n",")\n"],"name":"stdout"}]},{"cell_type":"code","metadata":{"id":"OjAjviJeAWgb","colab_type":"code","colab":{}},"source":["params= list(net.parameters())"],"execution_count":0,"outputs":[]},{"cell_type":"code","metadata":{"id":"0rwecL6QYC_W","colab_type":"code","outputId":"2f1ce9ff-b0ef-47eb-de34-9f00cc540d11","executionInfo":{"status":"ok","timestamp":
…
["print(device)"],"execution_count":112,"outputs":[{"output_type":"stream","text":["cuda:0\n"],"name":"stdout"}]},{"cell_type":"code","metadata":{"id":"vUfEGl8-wCIo","colab_type":"code","colab":{"base_uri":"https://localhost:8080/","height":163},"outputId":"4fe12051-842f-44b4-9313-b108fd3c1a03","executionInfo":{"status":"ok","timestamp":1590375286942,"user_tz":300,"elapsed":879,"user":{"displayName":"devesh reddy","photoUrl":"","userId":"05027707758600401989"}}},"source":["net.to(device)"],"execution_count":113,"outputs":[{"output_type":"execute_result","data":{"text/plain":["Net(\n","  (conv1): Conv2d(3, 6, kernel_size=(5, 5), stride=(1, 1))\n","  (pool): MaxPool2d(kernel_size=2, stride=2, padding=0, dilation=1, ceil_mode=False)\n","  (conv2): Conv2d(6, 16, kernel_size=(5, 5), stride=(1, 1))\n","  (fc1): Linear(in_features=400, out_features=120, bias=True)\n","  (fc2): Linear(in_features=120, out_features=84, bias=True)\n","  (fc3): Linear(in_features=84, out_features=10, bias=True)\n",")"]},"metadata":{"tags":[]},"execution_count":113}]},{"cell_type":"code","metadata":{"id":"HNIQAm_3wGo4","colab_type":"code","colab":{}},"source":["inputs,labels = data[]"],"execution_count":0,"outputs":[]}]}